FCN-HSI-SN-3D-Spe0.03_INtrain_seed1237_model_.pt (torch, 82175 bytes, 34 tensors)

weight f4 [4, 1, 7, 1, 1]
0	0xbde4e462	-0.11176373
1	0xbe710898	-0.23538435
2	0xbe3025b6	-0.17201886
3	0xbe12b1e0	-0.14325666
4	0xbee6c00c	-0.45068395
5	0x3d533482	0.051563747
6	0xbdccfb9e	-0.1000893
7	0xbcd2e92d	-0.025745953
8	0x3e530bb6	0.20609936
9	0xbe91f35c	-0.2850598
10	0x3e0da1b2	0.13831213
11	0x3e1106c4	0.14162737
12	0x3ea0332d	0.31289044
13	0x3ea89bc2	0.32931334
14	0xbeb96951	-0.36213163
15	0xbdd8bc85	-0.10582832
16	0x3dd78d9d	0.105250575
17	0x3e6359fc	0.22202295
18	0x3cbc9885	0.023021946
19	0x3dfd4cb7	0.12368148
20	0x3de2583a	0.11051984
21	0xbea6c3fc	-0.325714
22	0x3df1b56a	0.1180218
23	0xbed09690	-0.4073987
24	0xbe4c64cf	-0.1996033
25	0x3e2f6603	0.17128758
26	0xbd8610d6	-0.0654618
27	0x3d8653bc	0.0655894

bias f4 [4]
0	0x3e51c6c2	0.20485976
1	0xbcbdad42	-0.023153905
2	0x3e93297e	0.28742594
3	0x3ea2c85f	0.31793496

running_mean f4 [4]
0	0x3e519f38	0.20470893
1	0xbcb92ef7	-0.022605402
2	0x3e92c363	0.28664693
3	0x3ea0be14	0.31395018

running_var f4 [4]
0	0x3fabd8ab	1.3425497
1	0x3f29f1a4	0.6638434
2	0x3d05cba3	0.032664906
3	0x3ed58976	0.41706437

weight f4 [16, 4, 7, 1, 1]
0	0x3dda3356	0.10654323
1	0x3e3f1f08	0.18664181
2	0xbdba0483	-0.09082892
3	0xbde07118	-0.10959071
4	0xbe0bb4ba	-0.1364316
5	0xbb5ba606	-0.0033515706
6	0x3e5a8aa5	0.21341951
7	0x3ddca210	0.107730985
8	0x3e8fcdb6	0.28086632
9	0x3df6e506	0.120554015
10	0x3e821916	0.25409764
11	0xbce6eba3	-0.028188532
12	0xbdc1c889	-0.09462077
13	0x3dd0b73a	0.10191198
14	0xbd4cc20a	-0.049989738
15	0xbd75aa6b	-0.059976976
16	0x3d48f640	0.049062967
17	0x3e46eb82	0.19425777
18	0xbdd1aee1	-0.10238434
19	0xbd9d5451	-0.07682098
20	0x3e5728d2	0.21011665
21	0x3e70ad23	0.23503546
22	0x3e72c1a5	0.23706682
23	0x3dedde2b	0.11614641
24	0x3e3c6ae0	0.18400145
25	0x3e63a379	0.22230329
26	0x3e6f4bf9	0.23368825
27	0xbd975a20	-0.07390237
28	0xbe435ddd	-0.19078775
29	0xbe55f15a	-0.2089285
30	0xbda0f12e	-0.078585014
31	0xbe1b1d02	-0.15147784
32	0xbc0afa06	-0.008482462
33	0xbcd00a72	-0.025395606
34	0x3cbae92a	0.02281626
35	0xbe8b0901	-0.27155307
36	0xbe6920f9	-0.22766484
37	0xbd309b71	-0.04311699
38	0x3e1b9e7c	0.15197176
39	0xbe22257e	-0.15834615
40	0x3dad9a18	0.08476657
41	0xbce176e0	-0.027522504
42	0xbecc26d3	-0.3987337
43	0xbe1603e0	-0.14649916
44	0xbdb26115	-0.08709923
45	0xbd80a9e3	-0.06282403
46	0x3e412f97	0.1886581
47	0xbdecfad8	-0.11571282
48	0xbc479fd6	-0.012184104
49	0x3e04df22	0.12975743
50	0x3b479dfa	0.0030459152
51	0xbd9d9ba6	-0.07695703
52	0xbe2ac9fd	-0.16678615
53	0x3d87989e	0.06620906
54	0x3dfffd52	0.12499489
55	0x3e5571c7	0.20844184
56	0xbe32ef12	-0.1747401
57	0xbd53a866	-0.05167427
58	0xbda2e73f	-0.07954263
59	0xbe3dc19f	-0.18530892
60	0x3cfe70be	0.031059619
61	0xbe4db2aa	-0.20087686
62	0x3d3357ad	0.043784786
63	0xbdb9d3b2	-0.09073581
64	0x3d3cfca9	0.046139393
65	0x3e3a7ac4	0.18210894
66	0xbcb94586	-0.02261616
67	0xbcd7b25f	-0.026330171
68	0x3db1d551	0.08683265
69	0xbe26fc35	-0.16307147
70	0x3d99aca2	0.0750363
71	0xbde049bb	-0.10951563
72	0x3d8e8b34	0.06960145
73	0x3e835209	0.25648525
74	0x3e88e2e0	0.26735592
75	0x3e0338d0	0.12814641
76	0xbe516b0c	-0.20450991
77	0xbd21da1e	-0.039514653
78	0x3e205b7b	0.15659897
79	0xbdbe174c	-0.09281787
80	0xbde155d0	-0.110026956
81	0x3cd72f20	0.026267588
82	0x3da2b982	0.07945539
83	0xbd76bc5a	-0.06023822
84	0xbdfba8c7	-0.12288051
85	0xbe111a5a	-0.14170209
86	0x3c48f2bb	0.012264903
87	0x3d50ee73	0.051008653
88	0xbe37bf75	-0.17944129
89	0x3ce63e1b	0.028105786
90	0x3d453be0	0.048152804
91	0x3da03757	0.07823055
92	0x3de1fae0	0.11034179
93	0x3da09da4	0.078425676
94	0x3de3c141	0.11120845
95	0xbd7ba830	-0.061439693
96	0x3dd5d79d	0.104415156
97	0x3e188843	0.1489573
98	0xbd7b33cc	-0.061328694
99	0xbe001624	-0.12508446
100	0x3c791458	0.015202604
101	0xbdb799ab	-0.08964857
102	0xbe49613e	-0.19666001
103	0xbe421b61	-0.18955757
104	0xbd555de6	-0.0520915
105	0xbdbdff6e	-0.09277235
106	0xbd242157	-0.040070858
107	0x3d9608ae	0.07325874
108	0xbe4f7fc8	-0.20263588
109	0xbd9489cd	-0.07252846
110	0xbdc095b3	-0.09403553
111	0xbe34bfc4	-0.17651278
112	0xbdf2b240	-0.11850405
113	0x3dbbfced	0.09179101
114	0x3e4e8cfa	0.20170966
115	0x3e487802	0.1957703
116	0x3e1f9900	0.15585709
117	0x3d8a55c7	0.06754642
118	0x3adbfc71	0.0016783607
119	0xbd8549e5	-0.06508235
120	0x3d2de8e2	0.042458422
121	0xbd306a1d	-0.043069948
122	0x3d97003e	0.07373093
123	0xbcb13a7b	-0.021634331
124	0x3dabb183	0.08383467
125	0x3e6af311	0.22944285
126	0xbe422bc0	-0.18962002
127	0xbdaa215c	-0.08307144
128	0xbdc79e96	-0.09747045
129	0xbdf1072d	-0.11768947
130	0xbdcdad17	-0.1004278
131	0xbb81f0ae	-0.003965459
132	0x3e07ca21	0.132607
133	0xbe0a7e56	-0.13524756
134	0x3c94e150	0.018173844
135	0x3e074a80	0.13212013
136	0xbbaad5b2	-0.0052134627
137	0x3e46dab8	0.19419372
138	0xbd59a704	-0.053137794
139	0x3d92fa83	0.071766876
140	0xbd141b99	-0.03615913
141	0x3e28c236	0.16480336
142	0xbda62dc2	-0.08114196
143	0xbddd4326	-0.10803823
144	0xbdd95488	-0.10611826
145	0x3cb4b551	0.022059115
146	0x3cb36a94	0.021901406
147	0xbe8279e3	-0.25483617
148	0x3c8c9ea0	0.017165482
149	0x3cceb5e3	0.025233215
150	0xbc311211	-0.01080753
151	0x3d4350ce	0.047684483
152	0xbdf6b020	-0.12045312
153	0xbda61844	-0.08110097
154	0xbc5551a3	-0.013019952
155	0xbe9639c6	-0.29340953
156	0x3d61c891	0.055122916
157	0xbe666b9d	-0.22501989
158	0xbe3103b3	-0.17286567
159	0x3d1b58b4	0.03792639
160	0xbe62591a	-0.22104302
161	0xbd82f237	-0.06393855
162	0xbe118889	-0.1421224
163	0x3dd9c50c	0.10633287
164	0x3e63fc66	0.22264251
165	0x3d2ca83b	0.042152625
166	0x3e1e8676	0.1548098
167	0xbe76a1dd	-0.24085183
168	0xbe47fbc7	-0.19529639
169	0xbe375cc2	-0.17906478
170	0xbc5bd56b	-0.013417582
171	0x3de787a3	0.113051675
172	0x3db28b48	0.08717972
173	0xbdbab9d0	-0.09117472
174	0x3d01afa5	0.03166165
175	0xbe895d5e	-0.26829046
176	0xbe75671a	-0.23965111
177	0xbd1f03f6	-0.038822137
178	0x3e10bd83	0.14134793
179	0xbcce1b1c	-0.025159411
180	0x3e87c77a	0.26519376
181	0x3d0fd102	0.035111435
182	0x3e0fb233	0.14032821
183	0xbde7dbea	-0.11321242
184	0xbd732bae	-0.059367828
185	0xbe124f7f	-0.14288138
186	0xbc88008d	-0.016601825
187	0x3ea4ed50	0.32212305
188	0x3ea286cc	0.31743467
189	0xbd018110	-0.031617224
190	0x3b918167	0.004440475
191	0x3db5678a	0.08857639
192	0xbdc65412	-0.09684004
193	0xbdb7f6b2	-0.089826
194	0x3cf4b66d	0.029872144
195	0xbde85817	-0.11344927
196	0x3e20330e	0.15644476
197	0x3d8c603c	0.06854293
198	0xbd128faf	-0.03578156
199	0x3e0fb43b	0.14033596
200	0xbdbaa486	-0.091134116
201	0xbe555114	-0.2083171
202	0xbe3f4fc0	-0.18682766
203	0x3e7458bc	0.23861974
204	0x3cb285b3	0.021792268
205	0x3e839852	0.2570215
206	0x3e5d1d67	0.21593247
207	0xbdaabe7a	-0.08337112
208	0x3daa2934	0.0830864
209	0xbde869dd	-0.11348317
210	0x3e247319	0.16059531
211	0x3e95632f	0.29177234
212	0xbcb65cd7	-0.022261066
213	0xbdad80e0	-0.084718466
214	0x3d93e65d	0.07221673
215	0xbcdcee5e	-0.026969131
216	0xbd24d3d1	-0.040241066
217	0xbd897afc	-0.067129105
218	0xbd4db8c6	-0.05022504
219	0xbcb62c1e	-0.022237834
220	0xbdf9c038	-0.12194866
221	0xbcc134db	-0.023584774
222	0x3da1fc6f	0.07909476
223	0xbd08f365	-0.033435244
224	0x3b150622	0.002273925
225	0xbe387bfd	-0.18016048
226	0xbe1f4d15	-0.15556748
227	0x3dcd7494	0.10032001
228	0x3e0258c3	0.12729172
229	0xbe39f38d	-0.18159313
230	0x3da407d4	0.080093056
231	0x3e684e33	0.2268608
232	0x3d84e874	0.064896494
233	0xbd8b05f6	-0.06788246
234	0xbdc62435	-0.09674875
235	0x3de01196	0.10940854
236	0xbcb01f00	-0.021499157
237	0xbc80e234	-0.015732862
238	0x3d8c2fbe	0.068450436
239	0xbdde512b	-0.10855325
240	0x3e3dee02	0.18547824
241	0x3e29bd92	0.16576222
242	0x3e0aa766	0.1354042
243	0x3e880833	0.26568756
244	0x3e127837	0.14303671
245	0xbd175baa	-0.036952652
246	0x3d3e5803	0.046470653
247	0xbe118746	-0.14211759
248	0xbdb4732c	-0.0881103
249	0x3dce6b73	0.10079088
250	0xbe19f612	-0.15035275
251	0xbca37cb7	-0.01995693
252	0x3d0c51e4	0.034257784
253	0xbe3c27e6	-0.18374595
254	0xbde3cb02	-0.11122705
255	0xbe5a6622	-0.21328023

bias f4 [16]
0	0xbe1dec43	-0.15422158
1	0xbecdadd5	-0.40171686
2	0x3e2680da	0.1626009
3	0xbdd7750b	-0.10520371
4	0xbe47410c	-0.19458407
5	0xbdcd67b2	-0.10029544
6	0xbc652c2d	-0.013987583
7	0xbd2ff254	-0.04295571
8	0xbd5587c7	-0.05213144
9	0x3d709f63	0.058745753
10	0x3e311a8f	0.17295288
11	0x3dc46f6c	0.095915645
12	0xbcc1cc57	-0.023657007
13	0xbdd20666	-0.10255127
14	0xbe430530	-0.19044948
15	0x3e51d344	0.20490748

running_mean f4 [16]
0	0x3f3999aa	0.725001
1	0xbf712e01	-0.9421082
2	0x3d9894b9	0.074502416
3	0xbef1c898	-0.47223353
4	0x3dc66cb5	0.09688703
5	0xbf080881	-0.53137976
6	0xbdcf58ab	-0.10124334
7	0x3e278d06	0.1636239
8	0x3ddaf284	0.106907874
9	0xbecc09f4	-0.39851344
10	0xbe9a23a4	-0.30105317
11	0x3efa3302	0.4886704
12	0x3ed59dff	0.41722104
13	0xbe736c3f	-0.23771761
14	0xbf8aabb4	-1.083365
15	0xbeb106f8	-0.3457563

running_var f4 [16]
0	0x3eda3eb0	0.42625952
1	0x3ea23032	0.31677395
2	0x3ea3d620	0.31999302
3	0x3ea9962e	0.3312239
4	0x3e964961	0.2935286
5	0x3eaa239a	0.33230287
6	0x3e60ea5c	0.21964401
7	0x3ef33699	0.47502592
8	0x3edfa2f5	0.43679014
9	0x3e71054b	0.23537175
10	0x3f19176a	0.5980135
11	0x3ed017df	0.40643212
12	0x3e966357	0.29372665
13	0x3f1c41e9	0.6103807
14	0x3fcb440b	1.588014
15	0x3fa2d6a3	1.2721752

weight f4 [4, 16, 7, 1, 1]
0	0x3da42130	0.080141425
1	0xbd0fad72	-0.03507752
2	0xbde5bf8f	-0.112181775
3	0x3d4cd878	0.05001113
4	0x3d465bbc	0.04842733
5	0xbdaa1635	-0.08305017
6	0xbe15b68f	-0.14620422
7	0x3e33a0a7	0.17541753
8	0x3e8086a8	0.25102735
9	0xbc317090	-0.01083006
10	0xbd32d659	-0.04366145
11	0xbc45e672	-0.012078868
12	0x3d9f9e51	0.07793868
13	0x3d3941e8	0.04522887
14	0xbd88102d	-0.0664371
15	0x3d2898d2	0.041161366
16	0xbd09ca7a	-0.033640362
17	0x3d7d54ac	0.061848328
18	0x3d7ea073	0.062164735
19	0x3cc9e3d8	0.024644777
20	0x3d8a80d0	0.0676285
21	0xbd50b0fa	-0.050950028
22	0x3dd2ccfe	0.102930054
23	0xbdad6372	-0.08466233
24	0x3df2582f	0.11833226
25	0x3db7f1b8	0.08981651
26	0xba9953a3	-0.0011697899
27	0xbc95d589	-0.018290298
28	0x3cee4a65	0.029088208
29	0x3c950270	0.018189639
30	0xbdcdd32b	-0.10050043
31	0xbe33b7f5	-0.17550643
32	0xbdc762c2	-0.097356334
33	0xbe276ead	-0.16350813
34	0xbdf78fe3	-0.12087991
35	0x3dba9bca	0.09111746
36	0xbd1aaeef	-0.037764486
37	0xbd7ca537	-0.061681
38	0x3d6b229b	0.05740605
39	0x3d139db6	0.036039077
40	0xbc586191	-0.013206855
41	0xbdbfee39	-0.09371609
42	0xb97dfa9c	-0.0002422132
43	0xbc82b7fb	-0.01595687
44	0x3e15ad10	0.146168
45	0x3ca3c25c	0.019990139
46	0xbda22fa2	-0.079192415
47	0x3c8ca320	0.017167628
48	0x3d1d3323	0.038378846
49	0xbd8a1cc5	-0.067437686
50	0xbc9024dd	-0.017595703
51	0x3e0a2c5a	0.13493481
52	0x3c91cb90	0.017797261
53	0x3c75e336	0.015007785
54	0x3d0489de	0.032358043
55	0x3daddfdc	0.084899634
56	0xbdcd8037	-0.10034221
57	0x3cc72053	0.024307406
58	0x3e195448	0.14973557
59	0xbcffbe9f	-0.031218825
60	0xbddded89	-0.10836322
61	0x3e222600	0.15834808
62	0x3cd3fba3	0.025876826
63	0xbd1470e4	-0.036240473
64	0xbd047177	-0.03233477
65	0xbc46570b	-0.012105714
66	0xbcd6dc20	-0.02622801
67	0xbe029dbb	-0.12755482
68	0xbde38f0b	-0.11111268
69	0xba183647	-0.0005806428
70	0xbda6e138	-0.08148426
71	0xbd9bd5fb	-0.07609173
72	0x3d1b9a73	0.03798909
73	0xbbf642b8	-0.0075152777
74	0xbe3ac809	-0.1824037
75	0xbca07d32	-0.019590948
76	0x3dcc3e3e	0.09972809
77	0x3d9a2236	0.075260565
78	0x3e103b4a	0.14085117
79	0x3d074f5f	0.03303468
80	0x3e020c00	0.1269989
81	0x3d2abd23	0.04168428
82	0x3d99b2b2	0.075047866
83	0x3b99aa76	0.00468951
84	0x3daa4844	0.08314565
85	0xbc162bb7	-0.009165696
86	0x3dd4c4b6	0.10389082
87	0xbd04971d	-0.032370675
88	0xbc84c0dd	-0.016205246
89	0xbc37117a	-0.0111736
90	0x3da9b1c1	0.08285857
91	0xbcd9031a	-0.026490737
92	0xbc6490a8	-0.013950504
93	0x3e23668a	0.15957084
94	0xbd6f4892	-0.058418818
95	0xbd248b1c	-0.040171728
96	0x3b238719	0.002495235
97	0x3e26568a	0.1624395
98	0x3d3cdfd6	0.046111904
99	0x3dad22ff	0.084539406
100	0x3d200897	0.039070692
101	0x3d4f7d2d	0.050656486
102	0x3c4d4088	0.0125275925
103	0x3dcc6818	0.09980792
104	0x3ca522f5	0.02015827
105	0xbd7f3dbd	-0.062314738
106	0xbd32a182	-0.043611057
107	0xbdb41316	-0.08792703
108	0xbd86d933	-0.06584396
109	0x3a84989f	0.0010116285
110	0xbe00fe8f	-0.12597106
111	0xbd6827df	-0.05667865
112	0xbdcb66a0	-0.099316835
113	0xbcc7b1b0	-0.02437672
114	0xbd724350	-0.059146225
115	0xbdf23afb	-0.11827656
116	0xbe09b1ae	-0.13446686
117	0xbdb5f853	-0.08885255
118	0xbd980e65	-0.074246205
119	0xbe09cf99	-0.13458098
120	0xbe53c3a1	-0.20680095
121	0xbdb1d1cc	-0.08682594
122	0xbda9075b	-0.08253356
123	0x3d039ffb	0.03213499
124	0x3d4f3e3e	0.05059647
125	0x3d92fc36	0.07177012
126	0x3d7af160	0.06126535
127	0x3d8389df	0.06422781
128	0x3d5c2ebb	0.053755503
129	0x3c297b70	0.010344371
130	0x3d3200bc	0.04345773
131	0xbcfaafcf	-0.03060141
132	0xbd69247c	-0.05691956
133	0x3d5f2890	0.054482043
134	0xbbdda436	-0.0067639602
135	0x3c8517b9	0.016246663
136	0xbb88680c	-0.004162794
137	0x3c28c9af	0.010301991
138	0x3e2d45dd	0.16921182
139	0x3e0d60f0	0.1380651
140	0xbdf00e40	-0.11721468
141	0x3d2b7dc5	0.04186799
142	0xbe0ec639	-0.13942803
143	0x3d2c17c6	0.04201486
144	0x3c3b3c03	0.011427882
145	0xbc937426	-0.01799972
146	0xbde04289	-0.109501906
147	0xbe2ee474	-0.17079335
148	0x3cab9490	0.020944864
149	0x3da0d175	0.07852451
150	0xbc0c23f5	-0.008553495
151	0x3e18e1b1	0.14929844
152	0x3d595ecd	0.053068925
153	0x3e27e9de	0.16397807
154	0x3de6f69a	0.11277504
155	0x3d8199d8	0.063281715
156	0xbd506dff	-0.05088615
157	0x3c31bf31	0.010848806
158	0xbdd5678f	-0.10420143
159	0xbe78fd00	-0.24315262
160	0xbe053096	-0.13006815
161	0xbcc8214d	-0.024429942
162	0xbd497ba3	-0.049190175
163	0x3de03ddb	0.10949298
164	0x3da77623	0.0817683
165	0x3dde6901	0.10859872
166	0x3df19c40	0.117973804
167	0x3dc06131	0.09393538
168	0x3dad4560	0.08460498
169	0x3d8f8a20	0.07008767
170	0xbd0cb632	-0.034353442
171	0xbded184c	-0.115769
172	0x3cd584c2	0.02606428
173	0xbe7406f7	-0.23830782
174	0xbdd0d108	-0.101961195
175	0xbbe0ad1b	-0.0068565733
176	0xbdc57542	-0.09641506
177	0xbbb0678b	-0.005383437
178	0x3c5bab82	0.01340759
179	0x3db21463	0.08695295
180	0xbd264438	-0.040592402
181	0xbe078993	-0.13236074
182	0xbc792b9c	-0.015208151
183	0xbd563ea1	-0.05230582
184	0x3d0dc17e	0.034608357
185	0xbc41e746	-0.011834925
186	0x3dc35ad7	0.09538811
187	0x3e1adcfa	0.15123358
188	0x3e09018b	0.13379495
189	0x3caabf39	0.020843135
190	0xbde3b859	-0.11119146
191	0xbd802baf	-0.06258332
192	0x3d0f2ce8	0.034954935
193	0xbcffee53	-0.031241572
194	0xbd06a061	-0.032867793
195	0xbe0749bd	-0.13211723
196	0x3d801162	0.062533155
197	0x3d0f3c87	0.034969833
198	0x3d4fd5b5	0.050740916
199	0x3d9b9e28	0.07598525
200	0x3e232c68	0.15934908
201	0x3dfb0013	0.122558735
202	0x3d0e192b	0.03469197
203	0x3c0b4a94	0.0085016675
204	0x3ddfdd28	0.10930854
205	0x3e035508	0.12825406
206	0x3d301ea2	0.042997964
207	0x3cdbc5b1	0.026827665
208	0xbc86c1ce	-0.016449835
209	0x3d1e63b7	0.038669314
210	0x3bcbda87	0.006221119
211	0x3d4fc4bf	0.05072474
212	0xbd1037b9	-0.03520939
213	0x3d9baeda	0.0760171
214	0x3da8c3f1	0.08240498
215	0x3cf07ba2	0.029355828
216	0x3d558210	0.05212599
217	0xbd3d2a83	-0.04618312
218	0xbda0b255	-0.07846514
219	0x3d2c3377	0.04204127
220	0xbd24929b	-0.040178876
221	0xbd7d5e99	-0.061857793
222	0x3c69c9d0	0.014269307
223	0xbdbbfc44	-0.09178975
224	0xbb5ff30a	-0.0034171962
225	0xbb5188b5	-0.0031972353
226	0xbc834658	-0.016024753
227	0xbc9a4992	-0.01883391
228	0xbd92d693	-0.07169833
229	0xbccb0e01	-0.024786951
230	0x3de6aeda	0.11263819
231	0xbe6a6542	-0.2289019
232	0xbd4f16f1	-0.050558988
233	0xbc4b2b55	-0.012400468
234	0x3c0fbe8a	0.008773455
235	0xbe2e0e8c	-0.16997737
236	0xbd8152b3	-0.06314602
237	0xbe1bcd6d	-0.15215082
238	0xbd51f5f4	-0.05125995
239	0xbdb901e6	-0.09033565
240	0x3d6beab2	0.05759687
241	0x3e20e468	0.1571213
242	0x3e0d5a1e	0.13803908
243	0xbcfb17cb	-0.030650994
244	0xbd7c3b74	-0.061580136
245	0x3e3739d2	0.1789315
246	0x3d538ed2	0.051649876
247	0xbc6be0ba	-0.014396841
248	0x3d2eca51	0.042673413
249	0xbcada836	-0.021198373
250	0x3d1987ab	0.0374829
251	0xbd0c9b5c	-0.03432785
252	0xbdfcadb4	-0.12337819
253	0xbdb20ac7	-0.08693462
254	0xbd05f499	-0.03270397
255	0xbdd97e0f	-0.10619747

bias f4 [4]
0	0xbdfd30d5	-0.123628296
1	0xba4dc6b5	-0.0007849739
2	0x3d842c46	0.06453757
3	0x3e92d1cf	0.28675696

running_mean f4 [4]
0	0x3dcca062	0.09991528
1	0x3de8d09b	0.11367913
2	0xbf97e32d	-1.1866204
3	0xbeee0d32	-0.46494442

running_var f4 [4]
0	0x3f98c2ec	1.1934485
1	0x3f50302a	0.8132349
2	0x3ed32b0b	0.41243777
3	0x3edaf758	0.42766833

weight f4 [16, 4, 7, 1, 1]
0	0xbe0b5269	-0.13605656
1	0xbda00499	-0.07813377
2	0xbc37f868	-0.011228658
3	0xbda052e3	-0.078283094
4	0xbe45b10f	-0.19305824
5	0x3c58ead2	0.013239579
6	0x3e07837f	0.13233756
7	0xbdc9b331	-0.09848631
8	0xbd93d85c	-0.07219002
9	0xbe02545f	-0.12727498
10	0x3dda7408	0.106666625
11	0x3e14e79a	0.14541474
12	0x3ddb882e	0.107193336
13	0x3e765ee7	0.2405964
14	0x3e121f1b	0.14269678
15	0xbdd5e36e	-0.104437694
16	0xbdf20fb3	-0.11819401
17	0x3d28020c	0.041017577
18	0xbe06a9a6	-0.13150653
19	0x3d4787cd	0.048713494
20	0x3e048ba7	0.12943898
21	0x3be8efd8	0.0071086697
22	0xbe70e643	-0.23525338
23	0xbde9ee3b	-0.11422392
24	0xbe167d17	-0.14696155
25	0x3ca50d26	0.020147871
26	0xbe816ac7	-0.25276777
27	0xbe5bb76a	-0.21456686
28	0x3e8cbd03	0.27487954
29	0x3e23be7b	0.15990631
30	0x3dcb2cfa	0.09920688
31	0xbd3e2a86	-0.046427272
32	0x3e07dcad	0.13267775
33	0x3e48ab11	0.19596507
34	0x3df5f573	0.12009706
35	0xbccf3e1b	-0.025298169
36	0x3d03ba43	0.032160055
37	0x3e3d591d	0.18491025
38	0x3e7523c1	0.2393942
39	0xbdf855da	-0.1212575
40	0xbd8188d7	-0.06324928
41	0xb9e920c7	-0.00044465644
42	0x3e218c34	0.1577614
43	0xbc9563e9	-0.018236117
44	0x3e645119	0.22296561
45	0xbdc451dc	-0.09585926
46	0x3e00036c	0.12501305
47	0x3d19298b	0.037393134
48	0xbdaa6f05	-0.083219565
49	0xbdf718c0	-0.120652676
50	0x3dc2d17a	0.09512611
51	0x3ddde14c	0.108339876
52	0x3db9ff94	0.09081951
53	0x3e0a4ea7	0.13506566
54	0xbe0a2347	-0.1349002
55	0xbe5e7446	-0.21724042
56	0xbe26c529	-0.16286148
57	0x3a81fead	0.0009917818
58	0x3e25b8c5	0.16183765
59	0x3d5ed780	0.054404736
60	0xbde5c8ff	-0.112199776
61	0x3dbc8647	0.09205299
62	0xbe0610c4	-0.13092333
63	0x3c436ee5	0.011928295
64	0xbd7576c5	-0.05992772
65	0x3e0c84fb	0.13722603
66	0xbdcc58e9	-0.09977896
67	0xbe3bd745	-0.18343838
68	0xbe848147	-0.2587988
69	0xbe7c498d	-0.24637432
70	0x3e538065	0.20654447
71	0x3e1fce05	0.15605934
72	0xbd9f3e96	-0.07775609
73	0xbe437494	-0.1908744
74	0x3e0ed433	0.13948135
75	0xbdfb2c77	-0.1226434
76	0x3e34225f	0.17591237
77	0xbe3d8a61	-0.18509819
78	0x3d19c16c	0.037537977
79	0xbe1cd73b	-0.15316479
80	0x3e06ec02	0.13175967
81	0x3e01a7f2	0.12661722
82	0x3e5f42e6	0.21802863
83	0xbcc8f039	-0.02452861
84	0x3e70468d	0.23464413
85	0x3b3359e6	0.0027366816
86	0xbdc9e869	-0.09858782
87	0x3cb9d39c	0.022683911
88	0xbe105014	-0.14093047
89	0x3d88dba6	0.066825196
90	0xbd2958f2	-0.04134459
91	0xbe18f7b9	-0.14938249
92	0x3e0b73d3	0.13618402
93	0x3d63349d	0.055470098
94	0x3dbe1fc1	0.092834
95	0xbdf7b6c8	-0.1209541
96	0x3dc96805	0.09834293
97	0xbdce0dd5	-0.10061232
98	0xbe24050e	-0.16017553
99	0xbdda7795	-0.1066734
100	0xbdcc0e1b	-0.09963628
101	0xbd86dcc9	-0.0658508
102	0xbdb7d160	-0.08975482
103	0xbe1d7b5a	-0.15379086
104	0x3d3dc760	0.046332717
105	0x3dc3242d	0.09528384
106	0x3e80037c	0.25002658
107	0x3c3c1985	0.011480694
108	0x3e149ada	0.14512196
109	0xbe235bf5	-0.15953048
110	0xbe864c21	-0.26229957
111	0xbe346119	-0.17615165
112	0xbe662c8c	-0.22477931
113	0xbd8974ed	-0.06711755
114	0xbcd76c1e	-0.026296671
115	0xbe02598a	-0.12729469
116	0xbdb05da0	-0.086116076
117	0x3ce03329	0.027368145
118	0xbc904145	-0.017609248
119	0x3e92117f	0.28528973
120	0x3e54cf59	0.20782222
121	0x3e11327f	0.14179419
122	0xbd122756	-0.035682045
123	0x3dfc7984	0.12327865
124	0xbe1e20ee	-0.15442249
125	0x3c9cd903	0.019146448
126	0xbd80c13a	-0.06286855
127	0xbda683bf	-0.08130597
128	0x3cf380bc	0.029724471
129	0x3d9a23b0	0.07526338
130	0x3d5131b5	0.051072795
131	0x3d9a3e8c	0.07531461
132	0xbd4d5993	-0.050134253
133	0xbe05987e	-0.13046452
134	0xbc7117d4	-0.014715154
135	0xbe009469	-0.12556614
136	0xbdc03e2f	-0.093868606
137	0x3c188453	0.009308892
138	0x3d7ca7a3	0.06168331
139	0x3e03a67f	0.12856482
140	0xbea95096	-0.33069295
141	0xbdf9a860	-0.12190318
142	0xbe8b0cfd	-0.27158347
143	0xbe0ee027	-0.13952695
144	0xbe651284	-0.22370344
145	0xbe253036	-0.16131672
146	0xbde60800	-0.11231995
147	0xbdecdfff	-0.11566161
148	0xbc850894	-0.016239442
149	0x3b0030ac	0.001956026
150	0xbda83028	-0.0821231
151	0x3d8662b3	0.06561794
152	0x3da5ed31	0.08101881
153	0x3d6ee6f5	0.058325727
154	0x3d29d22e	0.04146021
155	0x3e45c080	0.19311714
156	0x3dac4807	0.084121756
157	0x3e62028d	0.22071286
158	0x3e5c4637	0.2151116
159	0x3d779fb8	0.060455054
160	0xbd85b22d	-0.06528125
161	0xbced1b0e	-0.028943565
162	0x3e00c524	0.12575203
163	0x3de26e0d	0.11056147
164	0xbd8d4eca	-0.068997934
165	0x3d179c5d	0.037014354
166	0x3c7d3fb6	0.015457084
167	0x3edec53a	0.43509847
168	0xbdb5ceaa	-0.08877309
169	0xbe978867	-0.29596254
170	0xbe8e89da	-0.27839547
171	0x3db1895c	0.08668777
172	0x3ca0fdd2	0.019652281
173	0x3dac7c78	0.08422178
174	0xbdf15f55	-0.11785761
175	0x3e52afc0	0.20574856
176	0xbde0758a	-0.10959919
177	0x3e142a44	0.14469248
178	0x3dc1d63f	0.09464692
179	0xbe4fea2b	-0.20304172
180	0xbe211512	-0.15730694
181	0x3d96ab30	0.0735687
182	0x3de4fdea	0.11181243
183	0x3e326787	0.17422305
184	0xbc846e66	-0.016165923
185	0xbe8410d1	-0.2579408
186	0xbe17b6e4	-0.14815861
187	0xbd9e5529	-0.07731087
188	0x3dbdb8bf	0.09263753
189	0xbe5ca483	-0.21547131
190	0xbdd51d3e	-0.10405968
191	0x3d1ea068	0.038727194
192	0xbe183fb5	-0.14868052
193	0x3dc70ed7	0.09719627
194	0x3b327550	0.0027230568
195	0xbd061a4c	-0.032739922
196	0x3da0435a	0.07825346
197	0xbe1a7965	-0.15085371
198	0x3dc36341	0.095404156
199	0x3d46067d	0.04834603
200	0xbda0a40c	-0.078437895
201	0xbe016f94	-0.1264022
202	0xbdc511c4	-0.09622529
203	0xbe11bb69	-0.14231648
204	0x3cd3e886	0.025867712
205	0xbe4cd436	-0.20002827
206	0xbe3b62cd	-0.18299408
207	0xbe10916a	-0.14117971
208	0x3e078afc	0.13236612
209	0xbe2adfce	-0.16686937
210	0xbdb59f5a	-0.088682845
211	0xbe75d048	-0.24005234
212	0x3cfa0b51	0.030522974
213	0x3d295a15	0.041345675
214	0x3d8a775a	0.06761046
215	0xbe503489	-0.2033254
216	0xbd6e1e4c	-0.058134362
217	0x3d751b3c	0.059840426
218	0xbbc0d68c	-0.005884951
219	0x3cf6be57	0.030120058
220	0x3de61aeb	0.11235603
221	0x3d7a2810	0.061073363
222	0xbe5d5a90	-0.21616578
223	0xbe22ec6c	-0.159105
224	0xbd4b7185	-0.049668808
225	0x3d3bccff	0.045849796
226	0xbe3624f6	-0.17787537
227	0xbe187981	-0.148901
228	0xbda415e5	-0.080119886
229	0xbdd75a99	-0.10515327
230	0x3dcc1710	0.09965336
231	0xbe0b99c7	-0.1363288
232	0xbe804563	-0.25052938
233	0xbe8281d2	-0.2548967
234	0x3df79aa9	0.12090046
235	0xbe06f417	-0.1317905
236	0x3c87e79d	0.016589934
237	0xbd64aa55	-0.055826504
238	0xbdb26f39	-0.0871262
239	0x3e10db52	0.14146164
240	0xbdf162c9	-0.1178642
241	0x3cadfc6e	0.021238532
242	0x3e7cb207	0.24677287
243	0x3e7d8e3d	0.24761291
244	0xbb4f4df3	-0.0031632155
245	0x3df4a01a	0.119445994
246	0x3e0198ed	0.12655993
247	0x3dc004bb	0.09375902
248	0xbe50dd21	-0.20396854
249	0xbdb90fc9	-0.09036214
250	0xbc5d8150	-0.0135196
251	0x3dbd3378	0.092383325
252	0x3e588f31	0.21148373
253	0xbe2f3ae3	-0.17112307
254	0x3df0e3f9	0.11762232
255	0xbd51140a	-0.0510445

bias f4 [16]
0	0x3cf8b434	0.030359365
1	0xbdac452e	-0.084116325
2	0xbce0f9f6	-0.02746294
3	0x3d48d3b6	0.04903003
4	0x3e320b22	0.1738706
5	0xbd424dd2	-0.047437496
6	0xbe1658c5	-0.146823
7	0xbdf5a714	-0.11994758
8	0x3d62e9df	0.055398818
9	0x3dd5e5d6	0.10444228
10	0x3dedb97c	0.11607644
11	0xbd872b62	-0.066000715
12	0xbe637a9d	-0.22214742
13	0x3df23621	0.118267305
14	0x3c7f4228	0.015579738
15	0x3d94c644	0.07264379

running_mean f4 [16]
0	0xbf382930	-0.7193785
1	0x3f84e284	1.0381627
2	0xbe94b1f8	-0.2904203
3	0xbee15c31	-0.4401565
4	0x3dbd3a3c	0.09239623
5	0xbdc0ecd1	-0.09420169
6	0xbf6d9436	-0.92804277
7	0xbf9c9a39	-1.2234565
8	0xbebc5c02	-0.36788946
9	0xbd87c66e	-0.06629644
10	0x3f85d4ff	1.0455626
11	0x3f852f60	1.0405083
12	0xbf61a571	-0.8814307
13	0x3f1b3a6d	0.60636026
14	0x3e638110	0.22217202
15	0x3f72bd49	0.94820076

running_var f4 [16]
0	0x3f9a97e5	1.2077605
1	0x3f561789	0.8362966
2	0x3ee60cc1	0.44931605
3	0x3e685d48	0.22691834
4	0x3f02196d	0.50820047
5	0x3edab772	0.42718083
6	0x3f0da6e3	0.55332774
7	0x3f58e93f	0.84730905
8	0x3ed297e8	0.4113152
9	0x3dcb2d8c	0.09920797
10	0x3f018ef5	0.5060876
11	0x3eb63409	0.35586575
12	0x3e2b7a5b	0.16745894
13	0x3fce0443	1.609505
14	0x3e1cd49a	0.15315476
15	0x3eb4b235	0.3529221

weight f4 [8, 16, 3, 1, 1]
0	0x3e290f2e	0.16509697
1	0x3de36258	0.11102742
2	0x3d86cfe7	0.06582623
3	0xbc2457a2	-0.010030659
4	0xbe2ce0ab	-0.16882579
5	0xbd02fe02	-0.031980522
6	0xbe9f5d3d	-0.31125823
7	0xbdb8b628	-0.090191185
8	0xbd9b0d7c	-0.07570931
9	0x3deb791a	0.11497708
10	0x3e012455	0.12611516
11	0xbcb04241	-0.021515967
12	0xbe17d378	-0.14826763
13	0x3d7fd24f	0.062456425
14	0xbcf805d0	-0.03027621
15	0x3d384134	0.044984058
16	0xbbfef69f	-0.0077808644
17	0x3dd9045e	0.10596536
18	0xbe2cb66f	-0.16866468
19	0x3df80af4	0.12111464
20	0x3dfb1f7e	0.12261866
21	0xbc26c794	-0.010179419
22	0xbe5307fe	-0.20608518
23	0xbe7178ab	-0.23581187
24	0xbe17aa5a	-0.14811078
25	0x3d88d36c	0.066809505
26	0x3d3bb58c	0.045827433
27	0xbe673089	-0.22577108
28	0xbe1e23b0	-0.15443301
29	0xbe0c5a40	-0.13706303
30	0xbdc8c0b6	-0.09802382
31	0xbdf10fdf	-0.11770605
32	0xbd08ce36	-0.033399783
33	0x3d5a64be	0.05331873
34	0xbe458b89	-0.1929151
35	0x3e507605	0.20357521
36	0x3d4e278e	0.05033069
37	0xbd2629cb	-0.0405672
38	0xbd5c05c8	-0.05371645
39	0xbcda4f3e	-0.026649114
40	0x3d78a71f	0.060706254
41	0x381f4244	3.797027e-05
42	0xbe9198bd	-0.28436843
43	0x3d29e9c5	0.041482706
44	0xbd18fa60	-0.03734815
45	0x3deea9ca	0.116534784
46	0xbd004aa5	-0.031321187
47	0x3d653aec	0.055964395
48	0xbd6b6e12	-0.057478018
49	0x3e226fc0	0.15862942
50	0xbbed4795	-0.0072411993
51	0xbe603046	-0.21893415
52	0xbd1e1063	-0.038589846
53	0xbda2e5a3	-0.07953956
54	0xbc3e2bf9	-0.011607164
55	0xbe2f72ea	-0.1713368
56	0x3c5ca737	0.0134676015
57	0xbe4c1af8	-0.19932163
58	0xbe93989c	-0.2882737
59	0xbd9171c0	-0.07101774
60	0x3d0ea8af	0.034828838
61	0x3aa96f3c	0.0012926827
62	0xbc3154cc	-0.01082344
63	0xbc7b3e45	-0.01533467
64	0x3e0a1501	0.13484575
65	0xbd458d4e	-0.04823046
66	0x3de14a4f	0.11000501
67	0x3d0575b3	0.03258295
68	0xbd8153ef	-0.06314837
69	0xbe2ca28e	-0.16858885
70	0xbe5dc4ad	-0.21657057
71	0xbcf2406e	-0.029571738
72	0x3d530987	0.051522758
73	0xbc5b8690	-0.013398781
74	0xbe1c9f76	-0.15295205
75	0xbe343dba	-0.17601672
76	0x3d2934b7	0.04131004
77	0xbdef96a1	-0.11698652
78	0x3c818610	0.015810996
79	0xbc4af65d	-0.012387839
80	0xbe2ddcec	-0.16978806
81	0x3d3166c9	0.043310914
82	0x3c1ea6fa	0.009683365
83	0x3e1cea87	0.1532384
84	0xbe44484c	-0.19168204
85	0xbe03e9d5	-0.12882169
86	0xbda76986	-0.08174424
87	0x3d539830	0.05165881
88	0x3d767d36	0.060178004
89	0x3d8b4577	0.06800359
90	0xbe393bdf	-0.18089245
91	0x3cf30031	0.029663177
92	0x3e600e6f	0.21880506
93	0x3d11b993	0.035577368
94	0xbdcc7f48	-0.099852145
95	0x3d27ae9d	0.04093801
96	0xbe5d20f4	-0.21594602
97	0xbe51701f	-0.20452927
98	0xbdf2bcc6	-0.11852412
99	0x3e06eb8e	0.13175794
100	0x3e1e55dc	0.1546244
101	0x3d3bdf29	0.04586712
102	0x3e81bf08	0.25341058
103	0x3e59e69a	0.21279374
104	0xbd0d0d03	-0.034436237
105	0xbd54a0a4	-0.05191101
106	0x3e09edd5	0.13469632
107	0xbd8cd6c8	-0.06876904
108	0xbe2b58b6	-0.1673306
109	0xbe144316	-0.14478716
110	0xbd8f9c9f	-0.07012295
111	0xbd83e4f7	-0.06440156
112	0xbe5a6e72	-0.21331194
113	0xbd1f4980	-0.038888454
114	0xbe5589fe	-0.20853421
115	0xbd4311a7	-0.047624256
116	0xbe22c9cb	-0.1589729
117	0x3d8e745d	0.06955788
118	0x3d8d3de9	0.06896574
119	0x3da00251	0.07812942
120	0xbd3a073c	-0.045417055
121	0xbd3eac68	-0.04655114
122	0x3dc3ebb0	0.09566438
123	0x3d4a8da8	0.0494515
124	0x3bc63d8c	0.0060498174
125	0x3cc370d1	0.023857506
126	0x3ddf136a	0.10892375
127	0xbd3ea2f7	-0.046542134
128	0xbdcdee6c	-0.10055241
129	0xbdf71358	-0.120642364
130	0xbd2dd12c	-0.04243581
131	0xbe06f820	-0.1318059
132	0x3b6a5bac	0.0035760207
133	0x3e7753d2	0.24153069
134	0x3cafb591	0.021448882
135	0x3e043048	0.12909043
136	0x3ce0bfa0	0.027435124
137	0x3e29713b	0.165471
138	0x3c40ca76	0.01176702
139	0x3d6661af	0.056245502
140	0x3ca463f1	0.020067187
141	0x3dc44e05	0.095851935
142	0xbd5027db	-0.05081926
143	0xbc6708a8	-0.014101185
144	0x3e483151	0.19550063
145	0x3c561a18	0.013067745
146	0xbc842e0e	-0.016135242
147	0xbe053cf8	-0.13011539
148	0x3d893813	0.067001484
149	0xbd0b1315	-0.033953745
150	0x3bcea76f	0.0063065807
151	0xbe543584	-0.2072354
152	0xbdebaa15	-0.1150705
153	0xbe89ab3e	-0.2688846
154	0xbcce1851	-0.02515808
155	0xbe35a972	-0.1774042
156	0x3e00fad8	0.1259569
157	0x3d9800ba	0.074220136
158	0x3e28772e	0.16451713
159	0x3d757e7e	0.059935085
160	0x3dab2845	0.0835729
161	0x3e03df82	0.1287823
162	0xbdb985dc	-0.09058735
163	0x3e37209e	0.17883536
164	0x3db3d430	0.08780706
165	0xbdbc1d6a	-0.09185298
166	0xbe1e5c05	-0.1546479
167	0x3d288944	0.04114653
168	0x3c3cc210	0.0115208775
169	0x3e07a901	0.13248064
170	0xbd688b91	-0.056773726
171	0xbe22d9ec	-0.15903443
172	0xbd6501e4	-0.055910006
173	0xbd8b76ba	-0.06809755
174	0xbd9a2486	-0.075264975
175	0xbdd9446f	-0.10608756
176	0x3d055e05	0.032560367
177	0x3d0348ec	0.032051966
178	0xbd01357b	-0.031545144
179	0xbe6b0258	-0.22950113
180	0x3bf22851	0.00739006
181	0xbe614228	-0.21997893
182	0xbd93bc3c	-0.07213637
183	0x3cec7518	0.028864428
184	0x3dde27db	0.108474456
185	0xbdb82c01	-0.08992768
186	0x3e0e9e86	0.1392766
187	0x3c9d7479	0.019220578
188	0x3de32fc8	0.11093098
189	0x3dc97184	0.098361045
190	0x3db32a37	0.08748286
191	0x3e5a52d2	0.21320656
192	0xb99d23ac	-0.0002997195
193	0x3e39adb9	0.18132676
194	0x3d6c483f	0.057686087
195	0x3e37a223	0.17932944
196	0x3c456836	0.012048772
197	0x3d1de2f7	0.03854653
198	0xbd8f30e4	-0.06991747
199	0xbd8e412a	-0.06946023
200	0x3e0a1b40	0.13486958
201	0xbeae9948	-0.3410132
202	0xbe4090dc	-0.1880526
203	0xbe851267	-0.25990602
204	0x3d9564f5	0.07294647
205	0xbd46b3b2	-0.048511215
206	0xbe30bbbc	-0.17259115
207	0xbde39b18	-0.11113566
208	0x3d683165	0.05668773
209	0x3da2f35c	0.07956573
210	0x3e287532	0.16450956
211	0x3dee3798	0.116316974
212	0xbda50485	-0.08057503
213	0xbb6c148d	-0.0036022991
214	0xbdec78f8	-0.115465105
215	0xbe0b288b	-0.13589685
216	0xbe01e52d	-0.1268508
217	0xbd4d1349	-0.05006722
218	0xbbb4ce3e	-0.00551775
219	0xbc6258e8	-0.013815142
220	0x3df51974	0.119677454
221	0x3ca8fd44	0.020628579
222	0x3d9ccfd1	0.07656825
223	0x3de3f5ad	0.11130843
224	0x3d15d662	0.036581405
225	0x3e4f6421	0.2025304
226	0xbe234e12	-0.1594775
227	0x3dbf3d9b	0.09337922
228	0x3d27b9a2	0.040948518
229	0x3e560994	0.20902091
230	0x3e8b5584	0.2721368
231	0x3c9bce98	0.01901941
232	0x3d19e400	0.037570953
233	0x3d8139bb	0.06309839
234	0x3dbbf3f6	0.09177391
235	0x3aec96e3	0.0018050339
236	0xbdbc7f25	-0.092039384
237	0x3d8b3aec	0.06798348
238	0xbe035db7	-0.12828718
239	0xbe254553	-0.16139726
240	0x3bcb337d	0.0062012062
241	0xbc9bff29	-0.019042568
242	0xbde09276	-0.10965435
243	0xbd5f3e72	-0.054502912
244	0x3cef7c24	0.029234
245	0x3d2411c8	0.04005602
246	0x3ba0a30e	0.00490225
247	0x3d88aa99	0.06673164
248	0xbe4f5f84	-0.2025128
249	0x3c066548	0.008202858
250	0xbd924a7f	-0.07143115
251	0x3d83434c	0.0640932
252	0xbe6d2573	-0.23158817
253	0xbd00f07f	-0.031479355
254	0x3decc7c1	0.115615375
255	0x3e07007c	0.13183779

bias f4 [8]
0	0xbd9b2f68	-0.075774014
1	0x3d92bbe2	0.07164742
2	0xbb3d63f5	-0.002889869
3	0x3d9b05f2	0.07569493
4	0xbceea588	-0.029131666
5	0x3de031d9	0.10947008
6	0xbca6d00f	-0.020362882
7	0xbded992f	-0.11601483

running_mean f4 [8]
0	0xbf1297be	-0.5726279
1	0xbf1ace2c	-0.60470843
2	0xbda72590	-0.08161461
3	0xbd318bfe	-0.043346398
4	0x3ca58319	0.020204114
5	0xbd59bf17	-0.053160753
6	0xbf09ec5f	-0.538763
7	0x3ee4bc11	0.44674733

running_var f4 [8]
0	0x3e252a7b	0.16129486
1	0x3e986710	0.2976613
2	0x3efa318e	0.48865932
3	0x3f1fe7ae	0.6246289
4	0x3e9a87ee	0.3018183
5	0x3e2adf38	0.16686714
6	0x3e58e3ff	0.21180724
7	0x3f077458	0.529119

weight f4 [16, 8, 3, 1, 1]
0	0xbdc7a823	-0.097488664
1	0x3d193be5	0.037410636
2	0xbcad40dc	-0.021149091
3	0xbe058626	-0.13039455
4	0xbc062094	-0.008186478
5	0x3d35f177	0.044419732
6	0x3d62c7a0	0.05536616
7	0x3d8b79aa	0.06810315
8	0x3e3e2de4	0.18572193
9	0x3d18ca2c	0.03730218
10	0xbde947fa	-0.113906816
11	0x3d86e8e8	0.06587392
12	0x3cad2035	0.021133522
13	0xbd19130f	-0.03737169
14	0xbe91e793	-0.2849699
15	0xbdc27faf	-0.0949701
16	0x3dca26ff	0.09870719
17	0xbdf6c761	-0.12049747
18	0xbe86a5ac	-0.26298273
19	0xbe4d92bd	-0.20075507
20	0xbebe1772	-0.37127262
21	0xbd89b6d2	-0.06724323
22	0xbea73c52	-0.32663208
23	0xbe55b9f0	-0.20871711
24	0x3ddfc8cf	0.10926973
25	0xbe7e9a3a	-0.2486352
26	0x3dfcd6fc	0.123456925
27	0x3e7879dd	0.24265237
28	0xbd93ff44	-0.072264224
29	0x3bd4f031	0.0064983596
30	0xbe128721	-0.1430936
31	0xbd1ac470	-0.037784994
32	0xbd849a37	-0.06474727
33	0x3db81496	0.089883015
34	0xbcabad19	-0.020956563
35	0x3d8d1c9a	0.06890221
36	0xbe835eb5	-0.25658193
37	0xbe82e455	-0.2556483
38	0xbe340e8d	-0.17583676
39	0xbe6438c4	-0.2228728
40	0xbe5d5b19	-0.21616782
41	0x3e66d4f3	0.22542171
42	0x3d251a8e	0.040308528
43	0xbe20e94e	-0.15713999
44	0x3d60b5bc	0.054860815
45	0x3ded6848	0.11592156
46	0x3e56a54a	0.2096149
47	0x3d69b142	0.05705381
48	0x3e3b06a2	0.18264249
49	0x3defafe9	0.11703474
50	0xbe72223c	-0.23645872
51	0xba7dcc4a	-0.00096816255
52	0x3dd7a374	0.10529223
53	0xbe1fc595	-0.15602715
54	0xbd243db9	-0.040097926
55	0x3df7aeb7	0.12093871
56	0xbc9551e8	-0.018227533
57	0x3e3a2be0	0.181808
58	0x3d22a0b4	0.03970404
59	0xbcaeafaa	-0.021323998
60	0xbe49b575	-0.19698127
61	0x3d0ecd9b	0.03486405
62	0x3e3c240a	0.18373123
63	0x3cf5d78b	0.030010005
64	0xbe199e77	-0.15001856
65	0x3cb22425	0.02174575
66	0x3e1ce9d2	0.1532357
67	0xbe07a6ac	-0.13247174
68	0xbe8a2e9c	-0.26988685
69	0xbe063756	-0.13107046
70	0xba871bce	-0.0010307969
71	0x3e81c25e	0.25343603
72	0x3e524781	0.20535089
73	0x3e3bd0ae	0.18341324
74	0xbde42d32	-0.11141433
75	0xbcb1095b	-0.021610906
76	0xbd8a3d61	-0.06749988
77	0x3d18e46d	0.03732722
78	0x3e492b08	0.19645321
79	0x3e1fbd83	0.15599637
80	0x3e47f984	0.19528776
81	0x3dbd463b	0.09241911
82	0x3e3bd9e4	0.18344837
83	0x3e2dcc0a	0.16972366
84	0xbd83ef60	-0.064421415
85	0x3c459539	0.012059503
86	0xbe5ea486	-0.21742448
87	0xbdf5e171	-0.1200589
88	0xbdb0262c	-0.08601031
89	0x3e41c447	0.1892253
90	0x3dc65c83	0.09685614
91	0xbeab7557	-0.3348796
92	0xbd894a44	-0.06703618
93	0xbdae3e94	-0.085080296
94	0xbd189e53	-0.037260365
95	0xbe90b4cf	-0.28262946
96	0x3c0c9352	0.008580046
97	0xbe8e9810	-0.2785039
98	0xbe40d169	-0.18829884
99	0xbe4299d6	-0.19003996
100	0x3ce57396	0.028009217
101	0x3bcc33f0	0.0062317774
102	0x3dbce5f9	0.09223551
103	0x3d8a8d65	0.0676525
104	0x3dccb15a	0.099947646
105	0xbdf42145	-0.11920408
106	0x3dc6deb3	0.09710445
107	0xbdac04d7	-0.083993606
108	0xbe8c6538	-0.27420974
109	0xbe42997f	-0.19003867
110	0xbe03dba8	-0.12876761
111	0xbc49f665	-0.012326811
112	0x3bb597ae	0.0055417633
113	0x3e06ae63	0.13152461
114	0xbd12e5a7	-0.035863545
115	0xbe3522a6	-0.17688999
116	0xbe7043fb	-0.23463432
117	0xbe8b126e	-0.27162498
118	0xbdacff5d	-0.08447144
119	0x3e5b22d3	0.21400003
120	0x3e420cfa	0.18950263
121	0xbe226f41	-0.15862752
122	0x3c23f4f1	0.010007129
123	0xbde3c7dd	-0.11122105
124	0xbe007d7f	-0.12547873
125	0x3d963e52	0.073361054
126	0xbd8541fb	-0.065067254
127	0xbd58f106	-0.052964233
128	0x3e7ad86a	0.24496618
129	0x3dcfc392	0.10144724
130	0xbe39cddf	-0.1814494
131	0xbe6601a0	-0.22461557
132	0x3e087d27	0.13328992
133	0xbdf1f4c4	-0.118142635
134	0x3e0a1e42	0.13488105
135	0xbe502abd	-0.20328803
136	0xbe8aac24	-0.27084458
137	0xbe9f2346	-0.310816
138	0xbda067a4	-0.07832268
139	0x3c830a8a	0.015996236
140	0xbe58aa85	-0.21158798
141	0x3d69895b	0.057015758
142	0x3e230152	0.15918472
143	0x3caa2830	0.020771116
144	0x3e7be0a3	0.24597411
145	0xbd56e86b	-0.052467745
146	0xbbcf8421	-0.0063328897
147	0x3b74fc55	0.0037381847
148	0x3e2464be	0.16054055
149	0x3d65ce29	0.056104813
150	0x3dfcf6a8	0.123517334
151	0x3de056a3	0.10954025
152	0xbdeb8131	-0.11499251
153	0xbe05b99e	-0.13059089
154	0x3e5f008b	0.21777551
155	0xbc144025	-0.009048496
156	0xbe69624c	-0.22791404
157	0x3e4c7b9f	0.19969033
158	0x3e400a3f	0.18753909
159	0x3e2a1de8	0.16612971
160	0x3ce45830	0.027874082
161	0xbe4c12eb	-0.19929092
162	0x3daa4b38	0.08315128
163	0x3e0a512a	0.13507524
164	0xbe3eeddd	-0.18645425
165	0x3dbe4d92	0.09292139
166	0xbd1942db	-0.037417274
167	0xbd83640c	-0.06415567
168	0xbcd646b3	-0.026156759
169	0x3ca93283	0.020653969
170	0xbc93e5a0	-0.01805383
171	0x3e41863d	0.18898864
172	0x3e970305	0.2949449
173	0x3da3dac6	0.08000712
174	0xbe0dec00	-0.13859558
175	0x3db4877b	0.08814903
176	0xb802ff8b	-3.123241e-05
177	0x3e312f36	0.17303166
178	0x3e83dd54	0.25754797
179	0x3db49edf	0.08819365
180	0xbd5804e3	-0.052739035
181	0x3cee53da	0.029092718
182	0xbe88790e	-0.26654857
183	0xbd6d9003	-0.05799867
184	0x3e79600d	0.24353047
185	0x3e757220	0.23969316
186	0x3d1f0586	0.038823627
187	0xbcb56491	-0.02214268
188	0xbddae456	-0.10688083
189	0x3d913fa0	0.07092214
190	0x3d5a1c8f	0.05324989
191	0xbd785bbd	-0.060634363
192	0x3e2395b2	0.15975073
193	0xbe1abe66	-0.15111694
194	0xbd7c93ff	-0.061664578
195	0x3df141fd	0.117801644
196	0x3e2dae07	0.16960917
197	0xbd88f582	-0.06687452
198	0x3e641c6f	0.22276472
199	0xbdc53f0e	-0.09631167
200	0x3e8107e3	0.2520133
201	0xbca60498	-0.020265862
202	0x3dda5390	0.106604695
203	0xbe5496b7	-0.20760618
204	0xbd2cef26	-0.042220257
205	0xbe7c9fd6	-0.24670348
206	0xbe077719	-0.13229026
207	0x3e322d71	0.17400147
208	0xbe63a086	-0.22229204
209	0xbdfead0c	-0.1243535
210	0xbdaad611	-0.08341611
211	0xbe90b4c1	-0.28262904
212	0xbc94ebe7	-0.018178893
213	0xbd501066	-0.05079689
214	0xbda75055	-0.08169619
215	0xbd129e3a	-0.035795428
216	0xbe8f081b	-0.2793587
217	0x3c62f81f	0.013853102
218	0x3e5bddf7	0.21471392
219	0xbda3524c	-0.07974681
220	0xbe3b1595	-0.18269952
221	0x3dcda356	0.100409195
222	0x3e35c153	0.17749529
223	0x3e8406f8	0.25786567
224	0xbe51ea8b	-0.20499627
225	0xbe2c3dd9	-0.16820468
226	0x3e3323ba	0.17494097
227	0xbe52c1d6	-0.20581755
228	0xbe8a9b37	-0.27071545
229	0xbe4d7ad8	-0.20066392
230	0x3d6d3f4d	0.057921696
231	0x3cdae1e2	0.026719037
232	0xbe195c12	-0.14976528
233	0xbe06cff1	-0.13165261
234	0xbdc51ebd	-0.096250035
235	0x3d8f9b11	0.070119984
236	0x3d6b8c30	0.05750674
237	0x3e5a5403	0.2132111
238	0xbe08d022	-0.13360646
239	0xbe624bc5	-0.22099216
240	0x3dea4bf2	0.11440267
241	0x3d7f7e75	0.06237646
242	0x3e510625	0.204125
243	0xbe61ec26	-0.2206274
244	0x3d51a843	0.051185858
245	0x3ce32850	0.027729183
246	0x3c8ac342	0.01693881
247	0xbcf7f9e6	-0.030270528
248	0xbe532665	-0.20620115
249	0xbd8d9893	-0.06913867
250	0xbc4b87d9	-0.012422525
251	0x3d5e865c	0.054327354
252	0x3dbf0bfc	0.09328458
253	0x3dc75960	0.09733844
254	0x3e742a83	0.23844342
255	0xbe0fe128	-0.14050734

bias f4 [16]
0	0x3bf34533	0.0074240207
1	0xbdc45f0e	-0.09588443
2	0xbe08f29f	-0.13373803
3	0x3e303938	0.17209327
4	0xbdef3952	-0.11680855
5	0xbdf911d2	-0.12161602
6	0xbe0fe904	-0.14053732
7	0x3dead362	0.11466099
8	0x3e7f77b2	0.24948004
9	0x3e583829	0.21115173
10	0xbd40095c	-0.046883926
11	0xbce2808c	-0.027649187
12	0x3dec0f84	0.11526397
13	0xbd5e3183	-0.054246437
14	0x3e71ad3b	0.23601238
15	0xbdaec96b	-0.08534511

running_mean f4 [16]
0	0xbf1cc903	-0.6124422
1	0xbe98a975	-0.29816785
2	0xbd9316ec	-0.071821064
3	0x3e9a4fea	0.30139095
4	0xbf2b4b14	-0.66911435
5	0xbeec8d49	-0.46201542
6	0x3e302bd3	0.17204218
7	0x3f0dfb26	0.5546135
8	0xbbcde51b	-0.006283415
9	0xbe1874fb	-0.14888375
10	0x3e05c13c	0.13061994
11	0xbf2f68a7	-0.6851906
12	0x3eb76af2	0.3582378
13	0xbedf5aa6	-0.43623847
14	0xbe40b22d	-0.18817969
15	0x3c2066f3	0.00979017

running_var f4 [16]
0	0x3e42373e	0.18966386
1	0x3e8bb2f0	0.27284956
2	0x3e12aa21	0.14322712
3	0x3e08254f	0.13295482
4	0x3ec151a8	0.3775761
5	0x3ef201c9	0.47266987
6	0x3e3a6752	0.18203476
7	0x3ec4cadf	0.38436028
8	0x3e696b50	0.22794843
9	0x3e8d2c6e	0.2757296
10	0x3e0b0caf	0.13579057
11	0x3eb15f83	0.34643182
12	0x3e41e8f2	0.18936518
13	0x3e3f65e9	0.1869122
14	0x3df425ee	0.11921297
15	0x3dfb62d9	0.12274713

weight f4 [16, 16, 47, 1, 1]
0	0xbda05590	-0.0782882
1	0x3d528d21	0.051404122
2	0x3dafb9b4	0.08580342
3	0x3de3d6dc	0.111249655
4	0x3b28700e	0.0025701555
5	0xbd6986be	-0.057013266
6	0xbd477de7	-0.048704054
7	0xbd203baf	-0.03911942
8	0xbe6cf24a	-0.23139301
9	0xbccb3ac5	-0.024808297
10	0x3e1e1ee8	0.15441477
11	0xbd746716	-0.059668623
12	0xbc8273cb	-0.015924355
13	0xbd3249f3	-0.043527555
14	0xbbfda453	-0.0077405362
15	0xbd4ff865	-0.050773997
16	0xbd77f084	-0.060532108
17	0x3c2fd9eb	0.010733108
18	0x3d224000	0.039611816
19	0xbccc4d59	-0.024939226
20	0xbcc56192	-0.024094377
21	0xbce00c7a	-0.0273497
22	0xbc95e8ac	-0.018299423
23	0x3b221938	0.002473427
24	0xbd62726c	-0.055284902
25	0x3d431a7c	0.04763268
26	0x3d30b18f	0.043138083
27	0x3dc8efaa	0.09811337
28	0x3d54322d	0.051805664
29	0x3d8fef44	0.07028058
30	0x3dba6d89	0.091029234
31	0x3deac2ef	0.11462962
32	0x3e03d2b6	0.12873349
33	0x3d384dd6	0.044996105
34	0xbb1efd7d	-0.0024259978
35	0x3c885cb5	0.016645769
36	0x3cad98dd	0.021191055
37	0xbcf8dc91	-0.030378612
38	0xbab5a9d0	-0.0013859812
39	0x3ca36705	0.019946584
40	0x3cb827b1	0.022479864
41	0xbc9819d2	-0.018567
42	0x3c972f69	0.018455224
43	0x3b1130c7	0.0022154318
44	0x3b666d0d	0.0035160214
45	0x3cbd83e0	0.023134172
46	0xbd6c3d0f	-0.057675418
47	0x3dd146c5	0.10218576
48	0xbd1fe3c1	-0.039035562
49	0x3ce490db	0.027901104
50	0xbdee54d5	-0.11637274
51	0xbdb98627	-0.09058791
52	0xbd4fa80e	-0.05069738
53	0xbdb09ede	-0.086240515
54	0x3d8db581	0.06919385
55	0xbc57b7b7	-0.01316636
56	0x3d384be9	0.04499427
57	0x3d817dcc	0.06322822
58	0xbc8b1fd1	-0.016982945
59	0xbd49b215	-0.049242098
60	0x3d867253	0.06564774
61	0x3da263d2	0.079291955
62	0x3d0cff50	0.034423172
63	0x3cf1d165	0.029518792
64	0xbd38358b	-0.044972938
65	0x3cb37b6f	0.021909444
66	0x3cd8f2b0	0.02648291
67	0x3d2f981f	0.042869683
68	0x3ccbf957	0.024899168
69	0x3d2163ae	0.039401703
70	0xbb41c95c	-0.0029569482
71	0xbdf06dab	-0.117396675
72	0xbd92a6f8	-0.07160753
73	0xbdd553f4	-0.104164034
74	0xbd514fc7	-0.051101472
75	0x3da7f853	0.08201661
76	0xbd8b6d59	-0.06807966
77	0xbdba1594	-0.09086147
78	0xbd48f2c6	-0.04905965
79	0xbd813141	-0.063082226
80	0xbd9222da	-0.07135554
81	0xbe2e08cf	-0.16995548
82	0xbeacad43	-0.33725938
83	0xbd8fdbd9	-0.070243545
84	0xbe3d613a	-0.1849412
85	0xbcbc5b52	-0.022992764
86	0xbdbb0d18	-0.09133357
87	0xbd01151b	-0.03151427
88	0xbd134458	-0.03595385
89	0xbd926f50	-0.071501374
90	0xbd400401	-0.04687882
91	0xbcd94995	-0.026524344
92	0xbd50e7f0	-0.051002443
93	0xbd078b76	-0.033091985
94	0x3e526a95	0.2054847
95	0x3e0cfa2e	0.13767311
96	0x3b4c285e	0.003115199
97	0xbcc59b3b	-0.024121871
98	0xbd93b2ae	-0.07211815
99	0xbd59aaac	-0.05314128
100	0xbcc82e27	-0.02443607
101	0xbd197c06	-0.037471794
102	0xbd871b0f	-0.06596958
103	0xbd2115ce	-0.039327435
104	0xbce42cde	-0.027853426
105	0xbd70b352	-0.058764763
106	0xbcd0086f	-0.025394646
107	0xbdd88b76	-0.10573475
108	0xbd4cc3d0	-0.04999143
109	0xbd51d3cb	-0.051227372
110	0xbcee4dff	-0.029089926
111	0xbe3f26b0	-0.18667102
112	0xbdb30f5f	-0.08743166
113	0xbd8bdec8	-0.068296015
114	0xbd8f19b9	-0.06987328
115	0x3d814725	0.06312398
116	0x3d69a5b1	0.05704278
117	0x3d70ac01	0.058757786
118	0xbc8342b3	-0.016023016
119	0x3dbc0dec	0.09182343
120	0x3d2888d2	0.041146107
121	0x3db29680	0.08720112
122	0x3da3a645	0.07990698
123	0x3d8083b8	0.06275123
124	0x3d8a8cd6	0.067651436
125	0x3d007f4f	0.03137141
126	0x3b9229bd	0.004460542
127	0xbb9ce0f3	-0.004787558
128	0xbd2c0c83	-0.04200412
129	0x3d095109	0.033524547
130	0x3a82210f	0.0009928065
131	0xbd18771c	-0.037222967
132	0x3ca32c11	0.019918473
133	0x3d987dc4	0.07445863
134	0x3d85ff92	0.06542887
135	0x3db03312	0.08603491
136	0x3db0cb0e	0.086324796
137	0x3d8b2c56	0.06795566
138	0x3ccbda87	0.024884475
139	0x3d573870	0.052544057
140	0x3aa9531d	0.0012918446
141	0x3dd75e76	0.10516064
142	0x3e0c2d74	0.13689214
143	0x3cf9f011	0.03050998
144	0xbe3310fc	-0.17486948
145	0xbe007164	-0.12543255
146	0xbddb8a1e	-0.10719703
147	0xbd0cdcdb	-0.03439031
148	0xbdca0610	-0.098644376
149	0xbdd2ca53	-0.102924965
150	0xbd260486	-0.040531658
151	0xbcd1d57f	-0.025614498
152	0x3d812016	0.06304948
153	0x3e09a8b1	0.13443257
154	0x3e495dad	0.1966464
155	0x3e02859a	0.12746277
156	0xbd986e3b	-0.074429
157	0xbd8fdb64	-0.07024267
158	0xbc41dd0f	-0.01183249
159	0xbc6c4c4b	-0.014422487
160	0xbd27c3bb	-0.040958147
161	0xbdd49af1	-0.10381115
162	0xbd431e53	-0.04763634
163	0xbcb8df1d	-0.022567326
164	0x3c8b954c	0.017038964
165	0xbde0b830	-0.10972631
166	0xbe086b4a	-0.13322178
167	0xbceaa749	-0.02864422
168	0x3dbfe34c	0.09369525
169	0x3dc6f73a	0.097151235
170	0x3de0badf	0.10973143
171	0x3dd01a8a	0.10161312
172	0x3e175dcf	0.14781879
173	0x3dfd7dcb	0.12377509
174	0x3cd3d198	0.025856778
175	0xbddbd748	-0.10734421
176	0xbdbf3053	-0.09335389
177	0xbda3657b	-0.0797834
178	0xbd398ec3	-0.045302164
179	0xbdc100ad	-0.09423957
180	0xbdaf4912	-0.08558859
181	0xbc0f7cd9	-0.008757793
182	0xbcc8b20d	-0.024498964
183	0xbd993b2b	-0.074819885
184	0xbdc8a6e9	-0.097974606
185	0xbc096479	-0.008385771
186	0x3d211a99	0.039332006
187	0xbd87a71e	-0.06623672
188	0x3db36fa9	0.08761532
189	0xbcc9e661	-0.024645986
190	0xbe2d5bce	-0.16929552
191	0xbdbba6a1	-0.09162641
192	0xbdb457f3	-0.088058375
193	0xbdab7095	-0.08371083
194	0xbd2af36a	-0.041736044
195	0x3d6dc5c1	0.05804992
196	0x3e02acb0	0.12761188
197	0xbd8dcc1e	-0.06923698
198	0x3da14663	0.07874753
199	0x3dd0f65b	0.102032386
200	0xbdbc5145	-0.091951884
201	0x3c9d7b53	0.019223845
202	0x3da850a7	0.08218508
203	0x3d7241b2	0.059144683
204	0x3d7c1262	0.06154097
205	0xbd351808	-0.04421237
206	0xbdb0c23f	-0.086307995
207	0x3d0c43b7	0.034244265
208	0x3d435eba	0.04769776
209	0x3d641c2c	0.05569093
210	0x3cb19a0b	0.021679899
211	0x3b970423	0.0046086474
212	0x3ddcec77	0.107872896
213	0xbb59b4c7	-0.0033219324
214	0xbd03e745	-0.032202978
215	0x3dd82d55	0.105555214
216	0x3c7defd2	0.015499072
217	0xbdadd43a	-0.08487745
218	0x3cbd31c2	0.023095015
219	0x3cb257f6	0.021770459
220	0x3d5a5240	0.053301096
221	0x3d976a1e	0.07393287
222	0x3d7ed285	0.062212486
223	0xbb95690b	-0.0045596412
224	0x3b29298f	0.0025812124
225	0xbd615131	-0.05500907
226	0x3b6f89c3	0.0036550618
227	0xbcd01127	-0.025398804
228	0xbd39dfdc	-0.045379505
229	0xbca99207	-0.020699514
230	0xbce65070	-0.028114527
231	0x3b6c796b	0.0036083113
232	0xbcdf3806	-0.027248394
233	0xbc964c6f	-0.018346993
234	0xbd45dd00	-0.048306465
235	0xbe0fae9e	-0.14031455
236	0xbc5b172a	-0.013372222
237	0x3cd62e68	0.026145175
238	0xbd21c660	-0.039495826
239	0xbcd36ea6	-0.025809597
240	0x3cd7e35d	0.026353532
241	0xbe87fb02	-0.2655869
242	0xbde6d653	-0.11271348
243	0xbdb85ca2	-0.09002043
244	0xbdafeb7a	-0.085898355
245	0xbd9b6210	-0.07587063
246	0xbd628704	-0.055304542
247	0xbd834dd9	-0.06411333
248	0xbd70f01f	-0.058822747
249	0xbd9c5f61	-0.076353796
250	0xbd6e1b33	-0.058131408
251	0xbdbdadcd	-0.092616655
252	0xbdc72df6	-0.09725563
253	0xbd36cd02	-0.044629104
254	0xbdb8c9b1	-0.090228446
255	0xbda8eb51	-0.08248008

bias f4 [16]
0	0xbbc7366a	-0.0060794847
1	0xbc44bd30	-0.012007996
2	0xbcea303d	-0.028587455
3	0xbcb598f4	-0.02216766
4	0x3cbf8b3d	0.023381824
5	0xbd0b5c5d	-0.03402363
6	0x3cc772c1	0.024346711
7	0x3d146d13	0.036236834
8	0x3c6bf069	0.01440058
9	0xbd113fc2	-0.035461195
10	0xbabef06d	-0.0014567502
11	0x3bbf3a56	0.0058358116
12	0xbd0a9e59	-0.03384242
13	0x3cf178bc	0.029476516
14	0x3cc62e1c	0.024191909
15	0xbd4907ca	-0.049079694

running_mean f4 [16]
0	0xc0c19240	-6.049103
1	0x3f9fad05	1.2474676
2	0x3f0821bc	0.53176475
3	0x3fb2438d	1.3926865
4	0x402e0c3c	2.7194967
5	0x408aa2a9	4.332356
6	0xbf8a0c83	-1.0785068
7	0xc0612dfe	-3.5184321
8	0x4051d4ff	3.2786252
9	0xbf6c63ae	-0.923396
10	0xc0d36537	-6.6061053
11	0xc085d111	-4.181771
12	0xc094ad7c	-4.6461773
13	0x4092ce80	4.5877075
14	0xc0593dbe	-3.3943934
15	0x3fd508e5	1.6643339

running_var f4 [16]
0	0x40f139d4	7.538309
1	0x416b7485	14.715947
2	0x411c9a0d	9.78761
3	0x415f25c4	13.94672
4	0x409798c8	4.7374
5	0x413c2954	11.76009
6	0x41995e9c	19.171196
7	0x40b31d83	5.5973525
8	0x40c68b7f	6.2045283
9	0x40ef8039	7.484402
10	0x41745265	15.270116
11	0x3ff4f0c5	1.9135977
12	0x40400fd4	3.000966
13	0x4080062d	4.000754
14	0x40fd914f	7.923988
15	0x4078854b	3.8831356
